…
                 {'resume_from_checkpoint': 0, 'every_n_steps': None}},     
                 'tracking': {'enabled': True, 'report_to': 'all'},         
                 'testing': {'enabled': False}}                             
        logger = <MultiProcessAdapter __main__ (INFO)>                      
  lr_scheduler = <torch.optim.lr_scheduler.LambdaLR object at               
                 0x7f467aebf640>                                            
         model = GPTNeoForCausalLM(                                         
                   (transformer): GPTNeoModel(                              
                    (wte): Embedding(50265, 2560)                          
                    (wpe): Embedding(2048, 2560)                           
                    (drop): Dropout(p=0.0, inplace=False)                  
                    (h): ModuleList(                                       
                      (0): GPTNeoBlock(                                    
                       (ln_1): LayerNorm((2560,), eps=1e-05,              
                 elementwise_affine=True)                                   
                       (attn): GPTNeoAttention(                           
                         (attention): GPTNeoSelfAttention(                
                          (attn_dropout): Dropout(p=0.0, inplace=False)  
                          (resid_dropout): Dropout(p=0.0,                
                 inplace=False)                                             
                          (k_proj): Linear(in_features=2560,             
                 out_features=2560, bias=False)                             
                          (v_proj): Linear(in_features=2560,             
                 out_features=2560, bias=False)                             
                          (q_proj): Linear(in_features=2560,             
                 out_features=2560, bias=False)                             
                          (out_proj): Linear(in_features=2560,           
                 out_features=2560, bias=True)                              
                         )                                                
                       )                                                  
                       (ln_2): LayerNorm((2560,), eps=1e-05,              
                 elementwise_affine=True)                                   
                       (mlp): GPTNeoMLP(                                  
                         (c_fc): Linear(in_features=2560,                 
                 out_features=10240, bias=True)                             
                         (c_proj): Linear(in_features=10240,              
                 out_features=2560, bias=True)                              
                         (act): NewGELUActivation()                       
                         (dropout): Dropout(p=0.0, inplace=False)         
                       )                                                  
                      )                                                    
                      (1): GPTNeoBlock(                                    
                       (ln_1): LayerNorm((2560,), eps=1e-05,              
                 elementwise_affine=True)                                   
                       (attn): GPTNeoAttention(                           
                         (attention): GPTNeoSelfAttention(                
                          (attn_dropout): Dropout(p=0.0, inplace=False)  
                          (resid_dropout): Dropout(p=0.0,                
                 inplace=False)                                             
                          (k_proj): Linear(in_features=2560,             
                 out_features=2560, bias=False)                             
                          (v_proj): Linear(in_features=2560,             
                 out_features=2560, bias=False)                             
                          (q_proj): Linear(in_features=2560,             
                 out_features=2560, bias=False)                             
                          (out_proj): Linear(in_features=2560,           
                 out_features=2560, bias=True)                              
                         )                                                
                       )                                                  
                       (ln_2): LayerNorm((2560,), eps=1e-05,              
                 elementwise_affine=True)                                   
                       (mlp): GPTNeoMLP(                                  
                         (c_fc): Linear(in_features=2560,                 
                 out_features=10240, bias=True)                             
                         (c_proj): Linear(in_features=10240,              
                 out_features=2560, bias=True)                              
                         (act): NewGELUActivation()                       
                         (dropout): Dropout(p=0.0, inplace=False)         
                       )                                                  
                      )                                                    
                      (2): GPTNeoBlock(                                    
                       (ln_1): LayerNorm((2560,), eps=1e-05,              
                 elementwise_affine=True)                                   
                       (attn): GPTNeoAttention(                           
                         (attention): GPTNeoSelfAttention(                
                          (attn_dropout): Dropout(p=0.0, inplace=False)  
                          (resid_dropout): Dropout(p=0.0,                
                 inplace=False)                                             
                          (k_proj): Linear(in_features=2560,             
                 out_features=2560, bias=False)                             
                          (v_proj): Linear(in_features=2560,             
                 out_features=2560, bias=False)                             
                          (q_proj): Linear(in_features=2560,             
                 out_features=2560, bias=False)                             
                          (out_proj): Linear(in_features=2560,           
                 out_features=2560, bias=True)                              
                         )                                                
                       )                                                  
                       (ln_2): LayerNorm((2560,), eps=1e-05,              
                 elementwise_affine=True)                                   
                       (mlp): GPTNeoMLP(                                  
                         (c_fc): Linear(in_features=2560,                 
                 out_features=10240, bias=True)                             
                         (c_proj): Linear(in_features=10240,              
                 out_features=2560, bias=True)                              
                         (act): NewGELUActivation()                       
                         (dropout): Dropout(p=0.0, inplace=False)         
                       )                                                  
                      )                                                    
                      (3): GPTNeoBlock(                                    
                       (ln_1): LayerNorm((2560,), eps=1e-05,              
                 elementwise_affine=True)                                   
                       (attn): GPTNeoAttention(                           
                         (attention): GPTNeoSelfAttention(                
                          (attn_dropout): Dropout(p=0.0, inplace=False)  
                          (resid_dropout): Dropout(p=0.0,                
                 inplace=False)                                             
                          (k_proj): Linear(in_features=2560,             
                 out_features=2560, bias=False)                             
                          (v_proj): Linear(in_features=2560,             
                 out_features=2560, bias=False)                             
                          (q_proj): Linear(in_features=2560,             
                 out_features=2560, bias=False)                             
                          (out_proj): Linear(in_features=2560,           
                 out_features=2560, bias=True)                              
                         )                                                
                       )                                                  
                       (ln_2): LayerNorm((2560,), eps=1e-05,              
                 elementwise_affine=True)                                   
                       (mlp): GPTNeoMLP(                                  
                         (c_fc): Linear(in_features=2560,                 
                 out_features=10240, bias=True)                             
                         (c_proj): Linear(in_features=10240,              
                 out_features=2560, bias=True)                              
                         (act): NewGELUActivation()                       
                         (dropout): Dropout(p=0.0, inplace=False)         
                       )                                                  
                      )                                                    
                      (4): GPTNeoBlock(                                    
                       (ln_1): LayerNorm((2560,), eps=1e-05,              
                 elementwise_affine=True)                                   
                       (attn): GPTNeoAttention(                           
                         (attention): GPTNeoSelfAttention(                
                          (attn_dropout): Dropout(p=0.0, inplace=False)  
                          (resid_dropout): Dropout(p=0.0,                
                 inplace=False)                                             
                          (k_proj): Linear(in_features=2560,             
                 out_features=2560, bias=False)                             
                          (v_proj): Linear(in_features=2560,             
                 out_features=2560, bias=False)                             
                          (q_proj): Linear(in_features=2560,             
                 out_features=2560, bias=False)                             
                          (out_proj): Linear(in_features=2560,           
                 out_features=2560, bias=True)                              
                         )                                                
                       )                                                  
                       (ln_2): LayerNorm((2560,), eps=1e-05,              
                 elementwise_affine=True)                                   
                       (mlp): GPTNeoMLP(                                  
                         (c_fc): Linear(in_features=2560,                 
                 out_features=10240, bias=True)                             
                         (c_proj): Linear(in_features=10240,              
                 out_features=2560, bias=True)                              
                         (act): NewGELUActivation()                       
                         (dropout): Dropout(p=0.0, inplace=False)         
                       )                                                  
                      )                                                    
                      (5): GPTNeoBlock(                                    
                       (ln_1): LayerNorm((2560,), eps=1e-05,              
                 elementwise_affine=True)                                   
                       (attn): GPTNeoAttention(                           
                         (attention): GPTNeoSelfAttention(                
                          (attn_dropout): Dropout(p=0.0, inplace=False)  
                          (resid_dropout): Dropout(p=0.0,                
                 inplace=False)                                             
                          (k_proj): Linear(in_features=2560,             
                 out_features=2560, bias=False)                             
                          (v_proj): Linear(in_features=2560,             
                 out_features=2560, bias=False)                             
                          (q_proj): Linear(in_features=2560,             
                 out_features=2560, bias=False)                             
                          (out_proj): Linear(in_features=2560,           
                 out_features=2560, bias=True)                              
                         )                                                
                       )                                                  
                       (ln_2): LayerNorm((2560,), eps=1e-05,              
                 elementwise_affine=True)                                   
                       (mlp): GPTNeoMLP(                                  
                         (c_fc): Linear(in_features=2560,                 
                 out_features=10240, bias=True)                             
                         (c_proj): Linear(in_features=10240,              
                 out_features=2560, bias=True)                              
                         (act): NewGELUActivation()                       
                         (dropout): Dropout(p=0.0, inplace=False)         
                       )                                                  
                      )                                                    
                      (6): GPTNeoBlock(                                    
                       (ln_1): LayerNorm((2560,), eps=1e-05,              
                 elementwise_affine=True)                                   
                       (attn): GPTNeoAttention(                           
                         (attention): GPTNeoSelfAttention(                
                          (attn_dropout): Dropout(p=0.0, inplace=False)  
                          (resid_dropout): Dropout(p=0.0,                
                 inplace=False)                                             
                          (k_proj): Linear(in_features=2560,             
                 out_features=2560, bias=False)                             
                          (v_proj): Linear(in_features=2560,             
                 out_features=2560, bias=False)                             
                          (q_proj): Linear(in_features=2560,             
                 out_features=2560, bias=False)                             
                          (out_proj): Linear(in_features=2560,           
                 out_features=2560, bias=True)                              
                         )                                                
                       )                                                  
                       (ln_2): LayerNorm((2560,), eps=1e-05,              
                 elementwise_affine=True)                                   
                       (mlp): GPTNeoMLP(                                  
                         (c_fc): Linear(in_features=2560,                 
                 out_features=10240, bias=True)                             
                         (c_proj): Linear(in_features=10240,              
                 out_features=2560, bias=True)                              
                         (act): NewGELUActivation()                       
                         (dropout): Dropout(p=0.0, inplace=False)         
                       )                                                  
                      )                                                    
                      (7): GPTNeoBlock(                                    
                       (ln_1): LayerNorm((2560,), eps=1e-05,              
                 elementwise_affine=True)                                   
                       (attn): GPTNeoAttention(                           
                         (attention): GPTNeoSelfAttention(                
                          (attn_dropout): Dropout(p=0.0, inplace=False)  
                          (resid_dropout): Dropout(p=0.0,                
                 inplace=False)                                             
                          (k_proj): Linear(in_features=2560,             
                 out_features=2560, bias=False)                             
                          (v_proj): Linear(in_features=2560,             
                 out_features=2560, bias=False)                             
                          (q_proj): Linear(in_features=2560,             
                 out_features=2560, bias=False)                             
                          (out_proj): Linear(in_features=2560,           
                 out_features=2560, bias=True)                              
                         )                                                
                       )                                                  
                       (ln_2): LayerNorm((2560,), eps=1e-05,              
                 elementwise_affine=True)                                   
                       (mlp): GPTNeoMLP(                                  
                         (c_fc): Linear(in_features=2560,                 
                 out_features=10240, bias=True)                             
                         (c_proj): Linear(in_features=10240,              
                 out_features=2560, bias=True)                              
                         (act): NewGELUActivation()                       
                         (dropout): Dropout(p=0.0, inplace=False)         
                       )                                                  
                      )                                                    
                      (8): GPTNeoBlock(                                    
                       (ln_1): LayerNorm((2560,), eps=1e-05,              
                 elementwise_affine=True)                                   
                       (attn): GPTNeoAttention(                           
                         (attention): GPTNeoSelfAttention(                
                          (attn_dropout): Dropout(p=0.0, inplace=False)  
                          (resid_dropout): Dropout(p=0.0,                
                 inplace=False)                                             
                          (k_proj): Linear(in_features=2560,             
                 out_features=2560, bias=False)                             
                          (v_proj): Linear(in_features=2560,             
                 out_features=2560, bias=False)                             
                          (q_proj): Linear(in_features=2560,             
                 out_features=2560, bias=False)                             
                          (out_proj): Linear(in_features=2560,           
                 out_features=2560, bias=True)                              
                         )                                                
                       )                                                  
                       (ln_2): LayerNorm((2560,), eps=1e-05,              
                 elementwise_affine=True)                                   
                       (mlp): GPTNeoMLP(                                  
                         (c_fc): Linear(in_features=2560,                 
                 out_features=10240, bias=True)                             
                         (c_proj): Linear(in_features=10240,              
                 out_features=2560, bias=True)                              
                         (act): NewGELUActivation()                       
                         (dropout): Dropout(p=0.0, inplace=False)         
                       )                                                  
                      )                                                    
                      (9): GPTNeoBlock(                                    
                       (ln_1): LayerNorm((2560,), eps=1e-05,              
                 elementwise_affine=True)                                   
                       (attn): GPTNeoAttention(                           
                         (attention): GPTNeoSelfAttention(                
                          (attn_dropout): Dropout(p=0.0, inplace=False)  
                          (resid_dropout): Dropout(p=0.0,                
                 inplace=False)                                             
                          (k_proj): Linear(in_features=2560,             
                 out_features=2560, bias=False)                             
                          (v_proj): Linear(in_features=2560,             
                 out_features=2560, bias=False)                             
                          (q_proj): Linear(in_features=2560,             
                 out_features=2560, bias=False)                             
                          (out_proj): Linear(in_features=2560,           
                 out_features=2560, bias=True)                              
                         )                                                
                       )                                                  
                       (ln_2): LayerNorm((2560,), eps=1e-05,              
                 elementwise_affine=True)                                   
                       (mlp): GPTNeoMLP(                                  
                         (c_fc): Linear(in_features=2560,                 
                 out_features=10240, bias=True)                             
                         (c_proj): Linear(in_features=10240,              
                 out_features=2560, bias=True)                              
                         (act): NewGELUActivation()                       
                         (dropout): Dropout(p=0.0, inplace=False)         
                       )                                                  
                      )                                                    
                      (10): GPTNeoBlock(                                   
                       (ln_1): LayerNorm((2560,), eps=1e-05,              
                 elementwise_affine=True)                                   
                       (attn): GPTNeoAttention(                           
                         (attention): GPTNeoSelfAttention(                
                          (attn_dropout): Dropout(p=0.0, inplace=False)  
                          (resid_dropout): Dropout(p=0.0,                
                 inplace=False)                                             
                          (k_proj): Linear(in_features=2560,             
                 out_features=2560, bias=False)                             
                          (v_proj): Linear(in_features=2560,             
                 out_features=2560, bias=False)                             
                          (q_proj): Linear(in_features=2560,             
                 out_features=2560, bias=False)                             
                          (out_proj): Linear(in_features=2560,           
                 out_features=2560, bias=True)                              
                         )                                                
                       )                                                  
                       (ln_2): LayerNorm((2560,), eps=1e-05,              
                 elementwise_affine=True)                                   
                       (mlp): GPTNeoMLP(                                  
                         (c_fc): Linear(in_features=2560,                 
                 out_features=10240, bias=True)                             
                         (c_proj): Linear(in_features=10240,              
                 out_features=2560, bias=True)                              
                         (act): NewGELUActivation()                       
                         (dropout): Dropout(p=0.0, inplace=False)         
                       )                                                  
                      )                                                    
                      (11): GPTNeoBlock(                                   
                       (ln_1): LayerNorm((2560,), eps=1e-05,              
                 elementwise_affine=True)                                   
                       (attn): GPTNeoAttention(                           
                         (attention): GPTNeoSelfAttention(                
                          (attn_dropout): Dropout(p=0.0, inplace=False)  
                          (resid_dropout): Dropout(p=0.0,                
                 inplace=False)                                             
                          (k_proj): Linear(in_features=2560,             
                 out_features=2560, bias=False)                             
                          (v_proj): Linear(in_features=2560,             
                 out_features=2560, bias=False)                             
                          (q_proj): Linear(in_features=2560,             
                 out_features=2560, bias=False)                             
                          (out_proj): Linear(in_features=2560,           
                 out_features=2560, bias=True)                              
                         )                                                
                       )                                                  
                       (ln_2): LayerNorm((2560,), eps=1e-05,              
                 elementwise_affine=True)                                   
                       (mlp): GPTNeoMLP(                                  
                         (c_fc): Linear(in_features=2560,                 
                 out_features=10240, bias=True)                             
                         (c_proj): Linear(in_features=10240,              
                 out_features=2560, bias=True)                              
                         (act): NewGELUActivation()                       
                         (dropout): Dropout(p=0.0, inplace=False)         
                       )                                                  
                      )                                                    
                      (12): GPTNeoBlock(                                   
                       (ln_1): LayerNorm((2560,), eps=1e-05,              
                 elementwise_affine=True)                                   
                       (attn): GPTNeoAttention(                           
                         (attention): GPTNeoSelfAttention(                
                          (attn_dropout): Dropout(p=0.0, inplace=False)  
                          (resid_dropout): Dropout(p=0.0,                
                 inplace=False)                                             
                          (k_proj): Linear(in_features=2560,             
                 out_features=2560, bias=False)                             
                          (v_proj): Linear(in_features=2560,             
                 out_features=2560, bias=False)                             
                          (q_proj): Linear(in_features=2560,             
                 out_features=2560, bias=False)                             
                          (out_proj): Linear(in_features=2560,           
                 out_features=2560, bias=True)                              
                         )                                                
                       )                                                  
                       (ln_2): LayerNorm((2560,), eps=1e-05,              
                 elementwise_affine=True)                                   
                       (mlp): GPTNeoMLP(                                  
                         (c_fc): Linear(in_features=2560,                 
                 out_features=10240, bias=True)                             
                         (c_proj): Linear(in_features=10240,              
                 out_features=2560, bias=True)                              
                         (act): NewGELUActivation()                       
                         (dropout): Dropout(p=0.0, inplace=False)         
                       )                                                  
                      )                                                    
                      (13): GPTNeoBlock(                                   
                       (ln_1): LayerNorm((2560,), eps=1e-05,              
                 elementwise_affine=True)                                   
                       (attn): GPTNeoAttention(                           
                         (attention): GPTNeoSelfAttention(                
                          (attn_dropout): Dropout(p=0.0, inplace=False)  
                          (resid_dropout): Dropout(p=0.0,                
                 inplace=False)                                             
                          (k_proj): Linear(in_features=2560,             
                 out_features=2560, bias=False)                             
                          (v_proj): Linear(in_features=2560,             
                 out_features=2560, bias=False)                             
                          (q_proj): Linear(in_features=2560,             
                 out_features=2560, bias=False)                             
                          (out_proj): Linear(in_features=2560,           
                 out_features=2560, bias=True)                              
                         )                                                
                       )                                                  
                       (ln_2): LayerNorm((2560,), eps=1e-05,              
                 elementwise_affine=True)                                   
                       (mlp): GPTNeoMLP(                                  
                         (c_fc): Linear(in_features=2560,                 
                 out_features=10240, bias=True)                             
                         (c_proj): Linear(in_features=10240,              
                 out_features=2560, bias=True)                              
                         (act): NewGELUActivation()                       
                         (dropout): Dropout(p=0.0, inplace=False)         
                       )                                                  
                      )                                                    
                      (14): GPTNeoBlock(                                   
                       (ln_1): LayerNorm((2560,), eps=1e-05,              
                 elementwise_affine=True)                                   
                       (attn): GPTNeoAttention(                           
                         (attention): GPTNeoSelfAttention(                
                          (attn_dropout): Dropout(p=0.0, inplace=False)  
                          (resid_dropout): Dropout(p=0.0,                
                 inplace=False)                                             
                          (k_proj): Linear(in_features=2560,             
                 out_features=2560, bias=False)                             
                          (v_proj): Linear(in_features=2560,             
                 out_features=2560, bias=False)                             
                          (q_proj): Linear(in_features=2560,             
                 out_features=2560, bias=False)                             
                          (out_proj): Linear(in_features=2560,           
                 out_features=2560, bias=True)                              
                         )                                                
                       )                                                  
                       (ln_2): LayerNorm((2560,), eps=1e-05,              
                 elementwise_affine=True)                                   
                       (mlp): GPTNeoMLP(                                  
                         (c_fc): Linear(in_features=2560,                 
                 out_features=10240, bias=True)                             
                         (c_proj): Linear(in_features=10240,              
                 out_features=2560, bias=True)                              
                         (act): NewGELUActivation()                       
                         (dropout): Dropout(p=0.0, inplace=False)         
                       )                                                  
                      )                                                    
                      (15): GPTNeoBlock(                                   
                       (ln_1): LayerNorm((2560,), eps=1e-05,              
                 elementwise_affine=True)                                   
                       (attn): GPTNeoAttention(                           
                         (attention): GPTNeoSelfAttention(                
                          (attn_dropout): Dropout(p=0.0, inplace=False)  
                          (resid_dropout): Dropout(p=0.0,                
                 inplace=False)                                             
                          (k_proj): Linear(in_features=2560,             
                 out_features=2560, bias=False)                             
                          (v_proj): Linear(in_features=2560,             
                 out_features=2560, bias=False)                             
                          (q_proj): Linear(in_features=2560,             
                 out_features=2560, bias=False)                             
                          (out_proj): Linear(in_features=2560,           
                 out_features=2560, bias=True)                              
                         )                                                
                       )                                                  
                       (ln_2): LayerNorm((2560,), eps=1e-05,              
                 elementwise_affine=True)                                   
                       (mlp): GPTNeoMLP(                                  
                         (c_fc): Linear(in_features=2560,                 
                 out_features=10240, bias=True)                             
                         (c_proj): Linear(in_features=10240,              
                 out_features=2560, bias=True)                              
                         (act): NewGELUActivation()                       
                         (dropout): Dropout(p=0.0, inplace=False)         
                       )                                                  
                      )                                                    
                      (16): GPTNeoBlock(                                   
                       (ln_1): LayerNorm((2560,), eps=1e-05,              
                 elementwise_affine=True)                                   
                       (attn): GPTNeoAttention(                           
                         (attention): GPTNeoSelfAttention(                
                          (attn_dropout): Dropout(p=0.0, inplace=False)  
                          (resid_dropout): Dropout(p=0.0,                
                 inplace=False)                                             
                          (k_proj): Linear(in_features=2560,             
                 out_features=2560, bias=False)                             
                          (v_proj): Linear(in_features=2560,             
                 out_features=2560, bias=False)                             
                          (q_proj): Linear(in_features=2560,             
                 out_features=2560, bias=False)                             
                          (out_proj): Linear(in_features=2560,           
                 out_features=2560, bias=True)                              
                         )                                                
                       )                                                  
                       (ln_2): LayerNorm((2560,), eps=1e-05,              
                 elementwise_affine=True)                                   
                       (mlp): GPTNeoMLP(                                  
                         (c_fc): Linear(in_features=2560,                 
                 out_features=10240, bias=True)                             
                         (c_proj): Linear(in_features=10240,              
                 out_features=2560, bias=True)                              
                         (act): NewGELUActivation()                       
                         (dropout): Dropout(p=0.0, inplace=False)         
                       )                                                  
                      )                                                    
                      (17): GPTNeoBlock(                                   
                       (ln_1): LayerNorm((2560,), eps=1e-05,              
                 elementwise_affine=True)                                   
                       (attn): GPTNeoAttention(                           
                         (attention): GPTNeoSelfAttention(                
                          (attn_dropout): Dropout(p=0.0, inplace=False)  
                          (resid_dropout): Dropout(p=0.0,                
                 inplace=False)                                             
                          (k_proj): Linear(in_features=2560,             
                 out_features=2560, bias=False)                             
                          (v_proj): Linear(in_features=2560,             
                 out_features=2560, bias=False)                             
                          (q_proj): Linear(in_features=2560,             
                 out_features=2560, bias=False)                             
                          (out_proj): Linear(in_features=2560,           
                 out_features=2560, bias=True)                              
                         )                                                
                       )                                                  
                       (ln_2): LayerNorm((2560,), eps=1e-05,              
                 elementwise_affine=True)                                   
                       (mlp): GPTNeoMLP(                                  
                         (c_fc): Linear(in_features=2560,                 
                 out_features=10240, bias=True)                             
                         (c_proj): Linear(in_features=10240,              
                 out_features=2560, bias=True)                              
                         (act): NewGELUActivation()                       
                         (dropout): Dropout(p=0.0, inplace=False)         
                       )                                                  
                      )                                                    
                      (18): GPTNeoBlock(                                   
                       (ln_1): LayerNorm((2560,), eps=1e-05,              
                 elementwise_affine=True)                                   
                       (attn): GPTNeoAttention(                           
                         (attention): GPTNeoSelfAttention(                
                          (attn_dropout): Dropout(p=0.0, inplace=False)  
                          (resid_dropout): Dropout(p=0.0,                
                 inplace=False)                                             
                          (k_proj): Linear(in_features=2560,             
                 out_features=2560, bias=False)                             
                          (v_proj): Linear(in_features=2560,             
                 out_features=2560, bias=False)                             
                          (q_proj): Linear(in_features=2560,             
                 out_features=2560, bias=False)                             
                          (out_proj): Linear(in_features=2560,           
                 out_features=2560, bias=True)                              
                         )                                                
                       )                                                  
                       (ln_2): LayerNorm((2560,), eps=1e-05,              
                 elementwise_affine=True)                                   
                       (mlp): GPTNeoMLP(                                  
                         (c_fc): Linear(in_features=2560,                 
                 out_features=10240, bias=True)                             
                         (c_proj): Linear(in_features=10240,              
                 out_features=2560, bias=True)                              
                         (act): NewGELUActivation()                       
                         (dropout): Dropout(p=0.0, inplace=False)         
                       )                                                  
                      )                                                    
                      (19): GPTNeoBlock(                                   
                       (ln_1): LayerNorm((2560,), eps=1e-05,              
                 elementwise_affine=True)                                   
                       (attn): GPTNeoAttention(                           
                         (attention): GPTNeoSelfAttention(                
                          (attn_dropout): Dropout(p=0.0, inplace=False)  
                          (resid_dropout): Dropout(p=0.0,                
                 inplace=False)                                             
                          (k_proj): Linear(in_features=2560,             
                 out_features=2560, bias=False)                             
                          (v_proj): Linear(in_features=2560,             
                 out_features=2560, bias=False)                             
                          (q_proj): Linear(in_features=2560,             
                 out_features=2560, bias=False)                             
                          (out_proj): Linear(in_features=2560,           
                 out_features=2560, bias=True)                              
                         )                                                
                       )                                                  
                       (ln_2): LayerNorm((2560,), eps=1e-05,              
                 elementwise_affine=True)                                   
                       (mlp): GPTNeoMLP(                                  
                         (c_fc): Linear(in_features=2560,                 
                 out_features=10240, bias=True)                             
                         (c_proj): Linear(in_features=10240,              
                 out_features=2560, bias=True)                              
                         (act): NewGELUActivation()                       
                         (dropout): Dropout(p=0.0, inplace=False)         
                       )                                                  
                      )                                                    
                      (20): GPTNeoBlock(                                   
                       (ln_1): LayerNorm((2560,), eps=1e-05,              
                 elementwise_affine=True)                                   
                       (attn): GPTNeoAttention(                           
                         (attention): GPTNeoSelfAttention(                
                          (attn_dropout): Dropout(p=0.0, inplace=False)  
                          (resid_dropout): Dropout(p=0.0,                
                 inplace=False)                                             
                          (k_proj): Linear(in_features=2560,             
                 out_features=2560, bias=False)                             
                          (v_proj): Linear(in_features=2560,             
                 out_features=2560, bias=False)                             
                          (q_proj): Linear(in_features=2560,             
                 out_features=2560, bias=False)                             
                          (out_proj): Linear(in_features=2560,           
                 out_features=2560, bias=True)                              
                         )                                                
                       )                                                  
                       (ln_2): LayerNorm((2560,), eps=1e-05,              
                 elementwise_affine=True)                                   
                       (mlp): GPTNeoMLP(                                  
                         (c_fc): Linear(in_features=2560,                 
                 out_features=10240, bias=True)                             
                         (c_proj): Linear(in_features=10240,              
                 out_features=2560, bias=True)                              
                         (act): NewGELUActivation()                       
                         (dropout): Dropout(p=0.0, inplace=False)         
                       )                                                  
                      )                                                    
                      (21): GPTNeoBlock(                                   
                       (ln_1): LayerNorm((2560,), eps=1e-05,              
                 elementwise_affine=True)                                   
                       (attn): GPTNeoAttention(                           
                         (attention): GPTNeoSelfAttention(                
                          (attn_dropout): Dropout(p=0.0, inplace=False)  
                          (resid_dropout): Dropout(p=0.0,                
                 inplace=False)                                             
                          (k_proj): Linear(in_features=2560,             
                 out_features=2560, bias=False)                             
                          (v_proj): Linear(in_features=2560,             
                 out_features=2560, bias=False)                             
                          (q_proj): Linear(in_features=2560,             
                 out_features=2560, bias=False)                             
                          (out_proj): Linear(in_features=2560,           
                 out_features=2560, bias=True)                              
                         )                                                
                       )                                                  
                       (ln_2): LayerNorm((2560,), eps=1e-05,              
                 elementwise_affine=True)                                   
                       (mlp): GPTNeoMLP(                                  
                         (c_fc): Linear(in_features=2560,                 
                 out_features=10240, bias=True)                             
                         (c_proj): Linear(in_features=10240,              
                 out_features=2560, bias=True)                              
                         (act): NewGELUActivation()                       
                         (dropout): Dropout(p=0.0, inplace=False)         
                       )                                                  
                      )                                                    
                      (22): GPTNeoBlock(                                   
                       (ln_1): LayerNorm((2560,), eps=1e-05,              
                 elementwise_affine=True)                                   
                       (attn): GPTNeoAttention(                           
                         (attention): GPTNeoSelfAttention(                
                          (attn_dropout): Dropout(p=0.0, inplace=False)  
                          (resid_dropout): Dropout(p=0.0,                
                 inplace=False)                                             
                          (k_proj): Linear(in_features=2560,             
                 out_features=2560, bias=False)                             
                          (v_proj): Linear(in_features=2560,             
                 out_features=2560, bias=False)                             
                          (q_proj): Linear(in_features=2560,             
                 out_features=2560, bias=False)                             
                          (out_proj): Linear(in_features=2560,           
                 out_features=2560, bias=True)                              
                         )                                                
                       )                                                  
                       (ln_2): LayerNorm((2560,), eps=1e-05,              
                 elementwise_affine=True)                                   
                       (mlp): GPTNeoMLP(                                  
                         (c_fc): Linear(in_features=2560,                 
                 out_features=10240, bias=True)                             
                         (c_proj): Linear(in_features=10240,              
                 out_features=2560, bias=True)                              
                         (act): NewGELUActivation()                       
                         (dropout): Dropout(p=0.0, inplace=False)         
                       )                                                  
                      )                                                    
                      (23): GPTNeoBlock(                                   
                       (ln_1): LayerNorm((2560,), eps=1e-05,              
                 elementwise_affine=True)                                   
                       (attn): GPTNeoAttention(                           
                         (attention): GPTNeoSelfAttention(                
                          (attn_dropout): Dropout(p=0.0, inplace=False)  
                          (resid_dropout): Dropout(p=0.0,                
                 inplace=False)                                             
                          (k_proj): Linear(in_features=2560,             
                 out_features=2560, bias=False)                             
                          (v_proj): Linear(in_features=2560,             
                 out_features=2560, bias=False)                             
                          (q_proj): Linear(in_features=2560,             
                 out_features=2560, bias=False)                             
                          (out_proj): Linear(in_features=2560,           
                 out_features=2560, bias=True)                              
                         )                                                
                       )                                                  
                       (ln_2): LayerNorm((2560,), eps=1e-05,              
                 elementwise_affine=True)                                   
                       (mlp): GPTNeoMLP(                                  
                         (c_fc): Linear(in_features=2560,                 
                 out_features=10240, bias=True)                             
                         (c_proj): Linear(in_features=10240,              
                 out_features=2560, bias=True)                              
                         (act): NewGELUActivation()                       
                         (dropout): Dropout(p=0.0, inplace=False)         
                       )                                                  
                      )                                                    
                      (24): GPTNeoBlock(                                   
                       (ln_1): LayerNorm((2560,), eps=1e-05,              
                 elementwise_affine=True)                                   
                       (attn): GPTNeoAttention(                           
                         (attention): GPTNeoSelfAttention(                
                          (attn_dropout): Dropout(p=0.0, inplace=False)  
                          (resid_dropout): Dropout(p=0.0,                
                 inplace=False)                                             
                          (k_proj): Linear(in_features=2560,             
                 out_features=2560, bias=False)                             
                          (v_proj): Linear(in_features=2560,             
                 out_features=2560, bias=False)                             
                          (q_proj): Linear(in_features=2560,             
                 out_features=2560, bias=False)                             
                          (out_proj): Linear(in_features=2560,           
                 out_features=2560, bias=True)                              
                         )                                                
                       )                                                  
                       (ln_2): LayerNorm((2560,), eps=1e-05,              
                 elementwise_affine=True)                                   
                       (mlp): GPTNeoMLP(                                  
                         (c_fc): Linear(in_features=2560,                 
                 out_features=10240, bias=True)                             
                         (c_proj): Linear(in_features=10240,              
                 out_features=2560, bias=True)                              
                         (act): NewGELUActivation()                       
                         (dropout): Dropout(p=0.0, inplace=False)         
                       )                                                  
                      )                                                    
                      (25): GPTNeoBlock(                                   
                       (ln_1): LayerNorm((2560,), eps=1e-05,              
                 elementwise_affine=True)                                   
                       (attn): GPTNeoAttention(                           
                         (attention): GPTNeoSelfAttention(                
                          (attn_dropout): Dropout(p=0.0, inplace=False)  
                          (resid_dropout): Dropout(p=0.0,                
                 inplace=False)                                             
                          (k_proj): Linear(in_features=2560,             
                 out_features=2560, bias=False)                             
                          (v_proj): Linear(in_features=2560,             
                 out_features=2560, bias=False)                             
                          (q_proj): Linear(in_features=2560,             
                 out_features=2560, bias=False)                             
                          (out_proj): Linear(in_features=2560,           
                 out_features=2560, bias=True)                              
                         )                                                
                       )                                                  
                       (ln_2): LayerNorm((2560,), eps=1e-05,              
                 elementwise_affine=True)                                   
                       (mlp): GPTNeoMLP(                                  
                         (c_fc): Linear(in_features=2560,                 
                 out_features=10240, bias=True)                             
                         (c_proj): Linear(in_features=10240,              
                 out_features=2560, bias=True)                              
                         (act): NewGELUActivation()                       
                         (dropout): Dropout(p=0.0, inplace=False)         
                       )                                                  
                      )                                                    
                      (26): GPTNeoBlock(                                   
                       (ln_1): LayerNorm((2560,), eps=1e-05,              
                 elementwise_affine=True)                                   
                       (attn): GPTNeoAttention(                           
                         (attention): GPTNeoSelfAttention(                
                          (attn_dropout): Dropout(p=0.0, inplace=False)  
                          (resid_dropout): Dropout(p=0.0,                
                 inplace=False)                                             
                          (k_proj): Linear(in_features=2560,             
                 out_features=2560, bias=False)                             
                          (v_proj): Linear(in_features=2560,             
                 out_features=2560, bias=False)                             
                          (q_proj): Linear(in_features=2560,             
                 out_features=2560, bias=False)                             
                          (out_proj): Linear(in_features=2560,           
                 out_features=2560, bias=True)                              
                         )                                                
                       )                                                  
                       (ln_2): LayerNorm((2560,), eps=1e-05,              
                 elementwise_affine=True)                                   
                       (mlp): GPTNeoMLP(                                  
                         (c_fc): Linear(in_features=2560,                 
                 out_features=10240, bias=True)                             
                         (c_proj): Linear(in_features=10240,              
                 out_features=2560, bias=True)                              
                         (act): NewGELUActivation()                       
                         (dropout): Dropout(p=0.0, inplace=False)         
                       )                                                  
                      )                                                    
                      (27): GPTNeoBlock(                                   
                       (ln_1): LayerNorm((2560,), eps=1e-05,              
                 elementwise_affine=True)                                   
                       (attn): GPTNeoAttention(                           
                         (attention): GPTNeoSelfAttention(                
                          (attn_dropout): Dropout(p=0.0, inplace=False)  
                          (resid_dropout): Dropout(p=0.0,                
                 inplace=False)                                             
                          (k_proj): Linear(in_features=2560,             
                 out_features=2560, bias=False)                             
                          (v_proj): Linear(in_features=2560,             
                 out_features=2560, bias=False)                             
                          (q_proj): Linear(in_features=2560,             
                 out_features=2560, bias=False)                             
                          (out_proj): Linear(in_features=2560,           
                 out_features=2560, bias=True)                              
                         )                                                
                       )                                                  
                       (ln_2): LayerNorm((2560,), eps=1e-05,              
                 elementwise_affine=True)                                   
                       (mlp): GPTNeoMLP(                                  
                         (c_fc): Linear(in_features=2560,                 
                 out_features=10240, bias=True)                             
                         (c_proj): Linear(in_features=10240,              
                 out_features=2560, bias=True)                              
                         (act): NewGELUActivation()                       
                         (dropout): Dropout(p=0.0, inplace=False)         
                       )                                                  
                      )                                                    
                      (28): GPTNeoBlock(                                   
                       (ln_1): LayerNorm((2560,), eps=1e-05,              
                 elementwise_affine=True)                                   
                       (attn): GPTNeoAttention(                           
                         (attention): GPTNeoSelfAttention(                
                          (attn_dropout): Dropout(p=0.0, inplace=False)  
                          (resid_dropout): Dropout(p=0.0,                
                 inplace=False)                                             
                          (k_proj): Linear(in_features=2560,             
                 out_features=2560, bias=False)                             
                          (v_proj): Linear(in_features=2560,             
                 out_features=2560, bias=False)                             
                          (q_proj): Linear(in_features=2560,             
                 out_features=2560, bias=False)                             
                          (out_proj): Linear(in_features=2560,           
                 out_features=2560, bias=True)                              
                         )                                                
                       )                                                  
                       (ln_2): LayerNorm((2560,), eps=1e-05,              
                 elementwise_affine=True)                                   
                       (mlp): GPTNeoMLP(                                  
                         (c_fc): Linear(in_features=2560,                 
                 out_features=10240, bias=True)                             
                         (c_proj): Linear(in_features=10240,              
                 out_features=2560, bias=True)                              
                         (act): NewGELUActivation()                       
                         (dropout): Dropout(p=0.0, inplace=False)         
                       )                                                  
                      )                                                    
                      (29): GPTNeoBlock(                                   
                       (ln_1): LayerNorm((2560,), eps=1e-05,              
                 elementwise_affine=True)                                   
                       (attn): GPTNeoAttention(                           
                         (attention): GPTNeoSelfAttention(                
                          (attn_dropout): Dropout(p=0.0, inplace=False)  
                          (resid_dropout): Dropout(p=0.0,                
                 inplace=False)                                             
                          (k_proj): Linear(in_features=2560,             
                 out_features=2560, bias=False)                             
                          (v_proj): Linear(in_features=2560,             
                 out_features=2560, bias=False)                             
                          (q_proj): Linear(in_features=2560,             
                 out_features=2560, bias=False)                             
                          (out_proj): Linear(in_features=2560,           
                 out_features=2560, bias=True)                              
                         )                                                
                       )                                                  
                       (ln_2): LayerNorm((2560,), eps=1e-05,              
                 elementwise_affine=True)                                   
                       (mlp): GPTNeoMLP(                                  
                         (c_fc): Linear(in_features=2560,                 
                 out_features=10240, bias=True)                             
                         (c_proj): Linear(in_features=10240,              
                 out_features=2560, bias=True)                              
                         (act): NewGELUActivation()                       
                         (dropout): Dropout(p=0.0, inplace=False)         
                       )                                                  
                      )                                                    
                      (30): GPTNeoBlock(                                   
                       (ln_1): LayerNorm((2560,), eps=1e-05,              
                 elementwise_affine=True)                                   
                       (attn): GPTNeoAttention(                           
                         (attention): GPTNeoSelfAttention(                
                          (attn_dropout): Dropout(p=0.0, inplace=False)  
                          (resid_dropout): Dropout(p=0.0,                
                 inplace=False)                                             
                          (k_proj): Linear(in_features=2560,             
                 out_features=2560, bias=False)                             
                          (v_proj): Linear(in_features=2560,             
                 out_features=2560, bias=False)                             
                          (q_proj): Linear(in_features=2560,             
                 out_features=2560, bias=False)                             
                          (out_proj): Linear(in_features=2560,           
                 out_features=2560, bias=True)                              
                         )                                                
                       )                                                  
                       (ln_2): LayerNorm((2560,), eps=1e-05,              
                 elementwise_affine=True)                                   
                       (mlp): GPTNeoMLP(                                  
                         (c_fc): Linear(in_features=2560,                 
                 out_features=10240, bias=True)                             
                         (c_proj): Linear(in_features=10240,              
                 out_features=2560, bias=True)                              
                         (act): NewGELUActivation()                       
                         (dropout): Dropout(p=0.0, inplace=False)         
                       )                                                  
                      )                                                    
                      (31): GPTNeoBlock(                                   
                       (ln_1): LayerNorm((2560,), eps=1e-05,              
                 elementwise_affine=True)                                   
                       (attn): GPTNeoAttention(                           
                         (attention): GPTNeoSelfAttention(                
                          (attn_dropout): Dropout(p=0.0, inplace=False)  
                          (resid_dropout): Dropout(p=0.0,                
                 inplace=False)                                             
                          (k_proj): Linear(in_features=2560,             
                 out_features=2560, bias=False)                             
                          (v_proj): Linear(in_features=2560,             
                 out_features=2560, bias=False)                             
                          (q_proj): Linear(in_features=2560,             
                 out_features=2560, bias=False)                             
                          (out_proj): Linear(in_features=2560,           
                 out_features=2560, bias=True)                              
                         )                                                
                       )                                                  
                       (ln_2): LayerNorm((2560,), eps=1e-05,              
                 elementwise_affine=True)                                   
                       (mlp): GPTNeoMLP(                                  
                         (c_fc): Linear(in_features=2560,                 
                 out_features=10240, bias=True)                             
                         (c_proj): Linear(in_features=10240,              
                 out_features=2560, bias=True)                              
                         (act): NewGELUActivation()                       
                         (dropout): Dropout(p=0.0, inplace=False)         
                       )                                                  
                      )                                                    
                    )                                                      
                    (ln_f): LayerNorm((2560,), eps=1e-05,                  
                 elementwise_affine=True)                                   
                   )                                                        
                   (lm_head): Linear(in_features=2560, out_features=50265,  
                 bias=False)                                                
                 )                                                          
     optimizer = AdamW (                                                    
                 Parameter Group 0                                          
                    amsgrad: False                                         
…
